…
Namespace(batch_size=64, draw_frequency=1, input_length=10240, models='leopard_unet', number_of_samples=10000, path='/scratch/jx00/cw2590/DL-based-DNA-decoding/', random_seed=1, transcription_factor='CTCF', vocab_size=5)
Model: "model"
__________________________________________________________________________________________________
 Layer (type)                   Output Shape         Param #     Connected to                     
==================================================================================================
 input_3 (InputLayer)           [(None, 10240, 5)]   0           []                               
                                                                                                  
 conv1d_6 (Conv1D)              (None, 10240, 15)    540         ['input_3[0][0]']                
                                                                                                  
 batch_normalization_3 (BatchNo  (None, 10240, 15)   60          ['conv1d_6[0][0]']               
 rmalization)                                                                                     
                                                                                                  
 conv1d_7 (Conv1D)              (None, 10240, 15)    1590        ['batch_normalization_3[0][0]']  
                                                                                                  
 batch_normalization_4 (BatchNo  (None, 10240, 15)   60          ['conv1d_7[0][0]']               
 rmalization)                                                                                     
                                                                                                  
 max_pooling1d (MaxPooling1D)   (None, 5120, 15)     0           ['batch_normalization_4[0][0]']  
                                                                                                  
 conv1d_8 (Conv1D)              (None, 5120, 22)     2332        ['max_pooling1d[0][0]']          
                                                                                                  
 batch_normalization_5 (BatchNo  (None, 5120, 22)    88          ['conv1d_8[0][0]']               
 rmalization)                                                                                     
                                                                                                  
 conv1d_9 (Conv1D)              (None, 5120, 22)     3410        ['batch_normalization_5[0][0]']  
                                                                                                  
 batch_normalization_6 (BatchNo  (None, 5120, 22)    88          ['conv1d_9[0][0]']               
 rmalization)                                                                                     
                                                                                                  
 max_pooling1d_1 (MaxPooling1D)  (None, 2560, 22)    0           ['batch_normalization_6[0][0]']  
                                                                                                  
 conv1d_10 (Conv1D)             (None, 2560, 33)     5115        ['max_pooling1d_1[0][0]']        
                                                                                                  
 batch_normalization_7 (BatchNo  (None, 2560, 33)    132         ['conv1d_10[0][0]']              
 rmalization)                                                                                     
                                                                                                  
 conv1d_11 (Conv1D)             (None, 2560, 33)     7656        ['batch_normalization_7[0][0]']  
                                                                                                  
 batch_normalization_8 (BatchNo  (None, 2560, 33)    132         ['conv1d_11[0][0]']              
 rmalization)                                                                                     
                                                                                                  
 max_pooling1d_2 (MaxPooling1D)  (None, 1280, 33)    0           ['batch_normalization_8[0][0]']  
                                                                                                  
 conv1d_12 (Conv1D)             (None, 1280, 49)     11368       ['max_pooling1d_2[0][0]']        
                                                                                                  
 batch_normalization_9 (BatchNo  (None, 1280, 49)    196         ['conv1d_12[0][0]']              
 rmalization)                                                                                     
                                                                                                  
 conv1d_13 (Conv1D)             (None, 1280, 49)     16856       ['batch_normalization_9[0][0]']  
                                                                                                  
 batch_normalization_10 (BatchN  (None, 1280, 49)    196         ['conv1d_13[0][0]']              
 ormalization)                                                                                    
                                                                                                  
 max_pooling1d_3 (MaxPooling1D)  (None, 640, 49)     0           ['batch_normalization_10[0][0]'] 
                                                                                                  
 conv1d_14 (Conv1D)             (None, 640, 73)      25112       ['max_pooling1d_3[0][0]']        
                                                                                                  
 batch_normalization_11 (BatchN  (None, 640, 73)     292         ['conv1d_14[0][0]']              
 ormalization)                                                                                    
                                                                                                  
 conv1d_15 (Conv1D)             (None, 640, 73)      37376       ['batch_normalization_11[0][0]'] 
                                                                                                  
 batch_normalization_12 (BatchN  (None, 640, 73)     292         ['conv1d_15[0][0]']              
 ormalization)                                                                                    
                                                                                                  
 max_pooling1d_4 (MaxPooling1D)  (None, 320, 73)     0           ['batch_normalization_12[0][0]'] 
                                                                                                  
 conv1d_16 (Conv1D)             (None, 320, 109)     55808       ['max_pooling1d_4[0][0]']        
                                                                                                  
 batch_normalization_13 (BatchN  (None, 320, 109)    436         ['conv1d_16[0][0]']              
 ormalization)                                                                                    
                                                                                                  
 conv1d_17 (Conv1D)             (None, 320, 109)     83276       ['batch_normalization_13[0][0]'] 
                                                                                                  
 batch_normalization_14 (BatchN  (None, 320, 109)    436         ['conv1d_17[0][0]']              
 ormalization)                                                                                    
                                                                                                  
 conv1d_transpose (Conv1DTransp  (None, 640, 72)     15768       ['batch_normalization_14[0][0]'] 
 ose)                                                                                             
                                                                                                  
 concatenate (Concatenate)      (None, 640, 145)     0           ['conv1d_transpose[0][0]',       
                                                                  'batch_normalization_12[0][0]'] 
                                                                                                  
 conv1d_18 (Conv1D)             (None, 640, 72)      73152       ['concatenate[0][0]']            
                                                                                                  
 batch_normalization_15 (BatchN  (None, 640, 72)     288         ['conv1d_18[0][0]']              
 ormalization)                                                                                    
                                                                                                  
 conv1d_19 (Conv1D)             (None, 640, 72)      36360       ['batch_normalization_15[0][0]'] 
                                                                                                  
 batch_normalization_16 (BatchN  (None, 640, 72)     288         ['conv1d_19[0][0]']              
 ormalization)                                                                                    
                                                                                                  
 conv1d_transpose_1 (Conv1DTran  (None, 1280, 48)    6960        ['batch_normalization_16[0][0]'] 
 spose)                                                                                           
                                                                                                  
 concatenate_1 (Concatenate)    (None, 1280, 97)     0           ['conv1d_transpose_1[0][0]',     
                                                                  'batch_normalization_10[0][0]'] 
                                                                                                  
 conv1d_20 (Conv1D)             (None, 1280, 48)     32640       ['concatenate_1[0][0]']          
                                                                                                  
 batch_normalization_17 (BatchN  (None, 1280, 48)    192         ['conv1d_20[0][0]']              
 ormalization)                                                                                    
                                                                                                  
 conv1d_21 (Conv1D)             (None, 1280, 48)     16176       ['batch_normalization_17[0][0]'] 
                                                                                                  
 batch_normalization_18 (BatchN  (None, 1280, 48)    192         ['conv1d_21[0][0]']              
 ormalization)                                                                                    
                                                                                                  
 conv1d_transpose_2 (Conv1DTran  (None, 2560, 32)    3104        ['batch_normalization_18[0][0]'] 
 spose)                                                                                           
                                                                                                  
 concatenate_2 (Concatenate)    (None, 2560, 65)     0           ['conv1d_transpose_2[0][0]',     
                                                                  'batch_normalization_8[0][0]']  
                                                                                                  
 conv1d_22 (Conv1D)             (None, 2560, 32)     14592       ['concatenate_2[0][0]']          
                                                                                                  
 batch_normalization_19 (BatchN  (None, 2560, 32)    128         ['conv1d_22[0][0]']              
 ormalization)                                                                                    
                                                                                                  
 conv1d_23 (Conv1D)             (None, 2560, 32)     7200        ['batch_normalization_19[0][0]'] 
                                                                                                  
 batch_normalization_20 (BatchN  (None, 2560, 32)    128         ['conv1d_23[0][0]']              
 ormalization)                                                                                    
                                                                                                  
 conv1d_transpose_3 (Conv1DTran  (None, 5120, 21)    1365        ['batch_normalization_20[0][0]'] 
 spose)                                                                                           
                                                                                                  
 concatenate_3 (Concatenate)    (None, 5120, 43)     0           ['conv1d_transpose_3[0][0]',     
                                                                  'batch_normalization_6[0][0]']  
                                                                                                  
 conv1d_24 (Conv1D)             (None, 5120, 21)     6342        ['concatenate_3[0][0]']          
                                                                                                  
 batch_normalization_21 (BatchN  (None, 5120, 21)    84          ['conv1d_24[0][0]']              
 ormalization)                                                                                    
                                                                                                  
 conv1d_25 (Conv1D)             (None, 5120, 21)     3108        ['batch_normalization_21[0][0]'] 
                                                                                                  
 batch_normalization_22 (BatchN  (None, 5120, 21)    84          ['conv1d_25[0][0]']              
 ormalization)                                                                                    
                                                                                                  
 conv1d_transpose_4 (Conv1DTran  (None, 10240, 14)   602         ['batch_normalization_22[0][0]'] 
 spose)                                                                                           
                                                                                                  
 concatenate_4 (Concatenate)    (None, 10240, 29)    0           ['conv1d_transpose_4[0][0]',     
                                                                  'batch_normalization_4[0][0]']  
                                                                                                  
 conv1d_26 (Conv1D)             (None, 10240, 14)    2856        ['concatenate_4[0][0]']          
                                                                                                  
 batch_normalization_23 (BatchN  (None, 10240, 14)   56          ['conv1d_26[0][0]']              
 ormalization)                                                                                    
                                                                                                  
 conv1d_27 (Conv1D)             (None, 10240, 14)    1386        ['batch_normalization_23[0][0]'] 
                                                                                                  
 batch_normalization_24 (BatchN  (None, 10240, 14)   56          ['conv1d_27[0][0]']              
 ormalization)                                                                                    
                                                                                                  
 conv1d_28 (Conv1D)             (None, 10240, 1)     15          ['batch_normalization_24[0][0]'] 
                                                                                                  
==================================================================================================
Total params: 475,969
Trainable params: 474,017
Non-trainable params: 1,952
__________________________________________________________________________________________________
…
